ODE-main/utils/mv1m_net.pth (torch, 686103 bytes, 4 tensors)

user_emb.weight f4 [948, 64]
000000 10 9e 07 bd e9 8b 09 bd 18 60 04 bd 48 44 37 bc
       -0.033109725 -0.033580694 -0.032318205 -0.011185713
000010 1f 23 21 bb 50 e7 17 bd fc 90 3d 3d c7 98 98 bd
       -0.0024587584 -0.03708583 0.046280846 -0.07451015
000020 9e c7 93 3c 0c 3e 87 bc 35 eb 76 3b fa dd 99 3c
       0.01803952 -0.016509078 0.0037676815 0.018782604
000030 fc b3 7f bd e9 90 bb bd 15 c1 61 3c 9f b7 f1 3d
       -0.062427506 -0.09158499 0.0137789445 0.11802601
000040 8b 62 cb bc dc 25 89 bc 89 66 88 3d f3 cb 36 3d
       -0.024827262 -0.016741686 0.06660182 0.044628095
000050 bb 4a ac bb c1 4b 28 bc 32 e4 a7 3d 01 d4 db 3a
       -0.005257932 -0.010271967 0.08197822 0.0016771556
000060 cb c3 03 bd 22 66 7a 3c 20 85 57 3c 9e e8 d6 3c
       -0.032169145 0.015283139 0.013154298 0.026233967
000070 f0 03 80 3d 0f 1a 28 bc 1f 25 40 bc 2f 4a 64 3c
       0.06250751 -0.010260119 -0.0117276 0.013933702
000080 67 b2 97 bd b9 6e db 3c fc 4e 63 bb 34 36 93 bd
       -0.074070744 0.026786195 -0.003468453 -0.07188073
000090 0d 7d 8c bc b8 56 f8 3c d3 5f 88 bc 52 88 26 3d
       -0.017149473 0.030314788 -0.016647255 0.04065735
0000a0 37 ee 9a bc 27 f9 d1 3b f4 79 98 3c 24 1c a8 bc
       -0.018912418 0.006407875 0.01861284 -0.020521231
0000b0 fe 7d c4 bd 2a 57 91 bd fe 3d 04 bd 62 0a 1c bd
       -0.095943436 -0.07096703 -0.032285683 -0.03809584
0000c0 71 db 13 bc 0e 0f 41 3d e6 16 6c bd 68 4b 0b bd
       -0.009024487 0.047133498 -0.057639025 -0.03400746
0000d0 95 08 a0 bc 63 be 91 bd d4 69 97 bd 37 74 e6 3a
       -0.019535342 -0.071163915 -0.07393232 0.0017582242
0000e0 2b 7f 9b bd 0e 20 b8 bc f8 b9 8f bc 39 93 c6 ba
       -0.07592615 -0.022476222 -0.017544731 -0.0015150077
0000f0 da 16 bb bc 03 c8 48 3d 27 b9 17 bd 99 30 89 3b
       -0.022838045 0.04901887 -0.03704181 0.0041867015
000100 5e 8a e0 3e 47 6d d6 3e 0f 06 9b be 24 51 02 3f
       0.43855566 0.41880247 -0.3027806 0.5090506
000110 4d fa e4 3e c0 66 e4 3e d4 ac 16 3e a6 30 3d 3e
       0.44722214 0.44609642 0.14714366 0.18475589
000120 0a fc 95 be 53 f9 f4 3e b1 5f a7 3e 25 dc d0 3e
       -0.29293853 0.4784647 0.32690194 0.40792957
000130 b7 97 ef 3e e2 ff b3 be 44 ec a9 be ae 52 a2 3e
       0.46795437 -0.3515616 -0.3318807 0.31703705
000140 69 b9 c9 3e 12 8e b7 3e 04 74 38 3e ec d2 95 3e
       0.3939927 0.3585058 0.18013006 0.29262483
000150 1d 77 f4 3e 61 1f d1 3e 0b 22 b4 3e ac 42 40 3c
       0.47747126 0.40844253 0.35182223 0.011734646
000160 f8 41 cc bd 4f 1e 07 3f 0d f6 b4 3d c6 d2 02 3e
       -0.0997352 0.5278062 0.08835993 0.12775716
000170 e0 fc bd be f5 e7 52 3e b7 84 78 be 1a 35 90 be
       -0.3710699 0.20596297 -0.24269377 -0.28165513
000180 ac 77 e2 be 59 fa 25 3e 35 62 b4 bd 0b 80 a8 3e
       -0.44231927 0.16208781 -0.08807794 0.3291019
000190 c5 bf 05 3f 49 fb 1f 3e 15 98 c4 3e 9c 3b 4e 3e
       0.5224574 0.15623201 0.3839728 0.20139927
0001a0 21 f0 2d 3e 83 fe 70 3e 35 32 42 be a5 b7 e8 3e
       0.16986133 0.23534589 -0.18964465 0.4545261
0001b0 31 42 25 be 4d 88 49 3e 7c 33 c3 3e 50 cd 86 3e
       -0.16138531 0.19680901 0.38125217 0.26328516
0001c0 4b 36 e7 be 45 3c 69 be d4 bd fe 3e e5 dc c8 3e
       -0.4515861 -0.22776897 0.49754202 0.3923103
0001d0 be 6b 30 be ad 33 e6 3e 7d e4 98 3e 3a 04 9e 3e
       -0.172286 0.449613 0.29861823 0.308626
0001e0 8e 24 25 be 49 42 98 3e 0c 05 ca 3e 3f 13 96 3e
       -0.16127226 0.29738072 0.39456975 0.2931156
0001f0 8e 34 74 3d 87 78 e7 b9 1a aa b4 3e 47 21 bb be
       0.059620433 -0.00044149553 0.35286027 -0.36548826
000200 4b e7 03 3e f3 5c 17 be 89 74 31 3c 05 36 62 3e
       0.128812 -0.14781551 0.010831007 0.2209092
000210 f2 ed 96 3d 77 67 ee 3d 22 be 19 bc bb 3a b0 3e
       0.07369603 0.11640828 -0.00938371 0.34419808
000220 46 e4 8b be 98 af 71 3d 54 61 97 3e 96 ba 04 3e
       -0.27322596 0.05900535 0.29566443 0.12961802
000230 5a c9 60 3c 67 79 5d 3e f9 3a b5 bd 75 65 ee bd
       0.013719881 0.21628343 -0.08849139 -0.11640445
000240 1f bd 27 3e a4 c7 84 bc 8b ae d2 bb 58 39 cc 3c
       0.16380738 -0.016208477 -0.0064294985 0.024929687
000250 18 31 03 3e ba 63 86 be 99 1a a0 3d 11 f4 68 3e
       0.12811697 -0.2624796 0.07817573 0.22749354
000260 6c 11 09 3e 3e 00 e1 3d 92 4b 05 3e 26 e1 98 3d
       0.13385552 0.10986374 0.13017109 0.07464819
000270 5a e5 23 3e 9d 96 e0 3d d8 aa 34 be d3 14 f9 bc
       0.1600546 0.10966227 -0.17643297 -0.030405438
000280 23 51 e6 bd a1 18 34 be fc 1a b7 3e 6a ae 91 3e
       -0.11245944 -0.1758752 0.35762775 0.2845338
000290 4b 1a 4a 3e c9 9f 06 bd 84 c0 64 3e d7 3c ae bd
       0.19736592 -0.032867227 0.22339064 -0.08507698
0002a0 39 8c 62 be 89 0b 80 bd a1 d3 8f 3d 68 bf 88 3d
       -0.22123803 -0.062522 0.07022787 0.06677133
0002b0 ef 77 50 be f4 10 99 3e c5 a0 8e 3d 92 7a e6 3d
       -0.20358251 0.29895747 0.06964258 0.11253847
0002c0 e0 27 7e be 22 d7 18 3e 72 39 07 3c 4d ef 65 3b
       -0.24819899 0.14925817 0.008253442 0.0035085261
0002d0 f7 4c d6 bc 93 ae 94 3d 51 c6 dd bc 54 08 8b 3d
       -0.026159747 0.0725986 -0.027072104 0.06788698
0002e0 b0 f9 08 be d1 8e 7c 3e d0 f7 c2 bd 63 44 8b 3d
       -0.13376498 0.24663855 -0.09519923 0.06800153
0002f0 2e e6 87 3e 19 0f 3d 3d 5c 2f e4 3c 4c 6e 04 bd
       0.265428 0.046156976 0.027854614 -0.03233175
000300 68 f8 60 3c 79 a7 c9 bd df e0 92 be 0d ef c8 bd
       0.0137311 -0.09846396 -0.28687188 -0.0981122
000310 aa 87 0e 3e 7d cc 46 3d aa e2 1a 3d 51 f9 00 3e
       0.13918939 0.04853486 0.03781382 0.12595107
000320 15 44 db 3d e5 bd 33 be 74 52 b3 3d 27 f5 3e 3e
       0.10706345 -0.17552908 0.08755961 0.18648206
000330 ad 32 e8 3d a0 b1 0e be cb a3 ad bd e9 60 0a 3e
       0.11337791 -0.13934946 -0.08478507 0.13513531
000340 dd c8 f2 3d 79 81 13 be d3 41 8e be 31 78 cc 3e
       0.11854718 -0.14404859 -0.27784595 0.3993545
000350 98 88 7f be 10 80 35 3e af d8 89 3e ae 19 3a 3d
       -0.2495445 0.17724633 0.2692313 0.045434646
000360 ad 16 99 be 43 cd 2a bc 32 08 63 3d ee 92 44 be
       -0.29900113 -0.010424915 0.055427738 -0.19196674
000370 34 3a 90 3e 35 30 84 3e fc 8c 68 3e 0a 33 c7 3e
       0.28169405 0.2581803 0.22710031 0.38906127
000380 17 2c 92 3d fa 6b 8e 3e f0 ef 93 3e 30 34 44 be
       0.07137316 0.27816755 0.28893995 -0.19160533
000390 c0 3d 9f be df 4c 22 be df a2 98 bd 5e 7e 3f 3e
       -0.311018 -0.15849636 -0.0745294 0.18700549
0003a0 6b 21 2f 3c 95 4f 42 bd 97 a0 9b 3d dd 9c 75 be
       0.01068912 -0.047439177 0.075989895 -0.2398562
0003b0 01 5f dd 3d 8c ff a0 bd af e6 d5 be 8b 73 43 3e
       0.10809136 -0.07861242 -0.4177756 0.19087045
0003c0 c5 98 6d 3e 32 6b ba bd f2 f4 2e be ab fc e0 bd
       0.23202808 -0.09102477 -0.17085627 -0.109856926
0003d0 54 39 d3 bd bf 7e a5 be 4f 06 c7 bd d1 4a de ba
       -0.10313669 -0.32323262 -0.09718 -0.0016959553
0003e0 aa 73 fa 3d 44 6f fe 3d 5a 1a 80 3d e5 7c 85 3e
       0.122290924 0.12423566 0.06255026 0.2607185
0003f0 57 98 1d 3e 17 4e ee bc b6 16 1b 3e 88 ca a9 bd
       0.15390144 -0.02908997 0.15145382 -0.08290583

user_bias.weight f4 [948, 1]
000000 aa 92 06 be 89 43 06 be 91 ee c6 3d b3 be 9e be
       -0.13141885 -0.131117 0.09713472 -0.31004867
000010 f0 9a fc 3e cd 9b bc be 63 78 21 be 3a 9d c3 3e
       0.49336958 -0.36837617 -0.1576858 0.38205892
000020 81 5c f5 3d 98 1e a0 3e 46 98 f3 3e 96 3c 4c bb
       0.11980534 0.3127334 0.47577113 -0.0031164042
000030 d2 ba d2 3e 55 50 5e be 9c ea 83 3e 29 46 51 be
       0.41158158 -0.21710332 0.2576493 -0.2043692
000040 a4 56 af 3e f2 bd 79 be af 62 f0 3d cc 9a 09 3e
       0.3424579 -0.24388865 0.117375724 0.13437957
000050 b1 9b 42 be 6a ed 96 be 14 73 fe bd ee 82 5e 3d
       -0.19004704 -0.29478008 -0.12424293 0.054324083
000060 b0 7e 00 3f 69 07 8c 3e 18 1e b6 be 53 43 08 bc
       0.5019331 0.27349404 -0.35569835 -0.008316833
000070 05 1e 08 3e 2c 86 89 3e fe 6f 8d 3e fa 9c 77 3e
       0.13292702 0.26860178 0.27624506 0.24180976
000080 1a c6 37 be d7 f1 5e 3e 74 b3 d3 3e b5 a8 14 be
       -0.17946663 0.21771942 0.4134785 -0.14517482
000090 a9 d4 f8 3e 1f 37 67 3e 56 ad 31 3e 65 7d 3b 3e
       0.48599747 0.22579621 0.17351279 0.18309553
0000a0 5c e1 c1 be a4 ff ce 3d 4f 1b a7 bd ca 09 58 3c
       -0.37867248 0.10107353 -0.081595056 0.013185928
0000b0 4d c2 3a 3d 7f 4f 79 3e 37 d7 c9 3e 15 8e c2 3d
       0.045595456 0.24346732 0.39422008 0.09499756
0000c0 31 49 33 bd 44 17 f8 be b9 6a 44 3e f3 35 4e be
       -0.043770973 -0.4845525 0.19181336 -0.20137767
0000d0 8a 79 01 3f bb ee 8e 3e 13 75 aa 3d 08 9c cb 3d
       0.5057608 0.27916512 0.083231114 0.0994187
0000e0 57 9b 19 3e 1f 8b ac 3c d2 2a a4 bd 4c 5e 85 3e
       0.15000664 0.021062432 -0.0801598 0.26048505
0000f0 a4 a2 dd 3e b3 ad 81 be cf f7 7c be a3 31 5f be
       0.43288147 -0.25327834 -0.24703906 -0.21796279
000100 1a 68 2d be cf bd 7a 3e 77 23 a3 3c f1 f8 8a 3e
       -0.16934243 0.24486469 0.019914372 0.27143052
000110 35 d9 9a be 4a f0 80 3e 1b fe 8c bd ea 5c 28 3a
       -0.3024384 0.25183326 -0.06884404 0.00064225367
000120 d1 a6 81 3e 07 0a 89 bd 1a 4d bf 3d d2 68 18 bc
       0.25322583 -0.06691366 0.09340878 -0.009302335
000130 6d b5 51 be 43 b4 5d be 58 80 c0 3c 20 9b 7e 3e
       -0.20479365 -0.21650796 0.0234987 0.24863863
000140 66 a1 a0 3c a6 b0 86 bd cb 51 f1 be 14 fb 00 be
       0.01960821 -0.06576662 -0.47132716 -0.12595779
000150 26 64 94 3e cf 93 f3 bd 5c 17 80 3e c8 fe 25 3e
       0.28982657 -0.118934266 0.25017822 0.16210473
000160 41 54 be 3e b1 b1 c3 3e ba de bc 3e 39 12 83 3d
       0.37173656 0.38221505 0.36888677 0.0639996
000170 79 11 f9 bd 9d 19 5d be 9b 8e 37 3e 02 7d 38 be
       -0.12161536 -0.21591802 0.17925493 -0.18016437
000180 4c 78 bb 3e 84 73 74 3e d6 82 0a 3e 92 e2 c0 bc
       0.36615217 0.2387219 0.13526472 -0.023545537
000190 0d ea a3 be 3f b0 d1 be 6b 22 32 bf 41 f5 b5 bd
       -0.32014504 -0.40954778 -0.6958377 -0.08884669
0001a0 eb 41 04 bf ec 7d 1c be 79 f9 f6 3d 84 75 3a be
       -0.5166308 -0.1528241 0.12059302 -0.18208891
0001b0 75 61 de 3d f0 c2 3c be 00 40 a0 be 2f 95 17 bd
       0.10858432 -0.18433738 -0.31298828 -0.037007507
0001c0 5f 1f 84 3e 18 e8 67 3e ee 40 69 be 08 95 02 3e
       0.25805184 0.2264713 -0.22778675 0.12752163
0001d0 70 db db be 61 ac a1 3e 73 e1 19 3f ab c8 ad 3e
       -0.42940855 0.31576827 0.60109633 0.3394216
0001e0 7c 0b 8b bc 87 45 c9 bc 5a 61 a4 3e 05 ff 77 3c
       -0.01697325 -0.024569286 0.32105523 0.015136485
0001f0 c9 58 05 be ef 02 18 be 14 60 82 3e 0b 9c bd 3e
       -0.1302215 -0.14844869 0.25463927 0.37033114
000200 b2 16 56 3d f5 f2 e0 be b6 71 ca 3e fa 61 9e 3e
       0.052267738 -0.43935362 0.3953988 0.30934125
000210 d7 ec b9 39 91 eb 2b be f4 b7 a0 3d 3f 63 01 bd
       0.0003546241 -0.1678908 0.07847586 -0.03158879
000220 cc 77 d3 3e df 04 bf 3e e9 53 c1 3e 2d a9 91 3e
       0.41302335 0.37308404 0.3775933 0.28449383
000230 f1 a3 1b 3e e1 ff 4a be 99 bd 81 3c 7a 9d e7 3d
       0.15199257 -0.19824173 0.015837478 0.11309333
000240 d4 65 95 3c f4 dd 29 bd 07 88 83 3e df 4d 95 3e
       0.018237032 -0.041471437 0.25689718 0.29160973
000250 52 6b 4a 3e 82 d3 c0 be ae 40 8d 3e 34 f1 62 3e
       0.19767502 -0.37661368 0.2758841 0.22162324
000260 5c 38 02 3f 49 f7 0b be 0e 67 c1 3d 16 70 88 be
       0.5086725 -0.1366855 0.09443484 -0.26648015
000270 b8 30 50 bd c5 03 8c 3e 7e 8c 8f 3e ee 20 26 3e
       -0.05082771 0.27346626 0.28036875 0.16223499
000280 0d 75 13 3e f1 7a 14 bf 05 ec da 3d 0e cd b0 be
       0.1440012 -0.58000094 0.106895484 -0.34531444
000290 d2 24 cd 3e 0a 85 5f 3e cf 55 0f 3e ae ca 03 be
       0.40067154 0.21828094 0.13997577 -0.12870285
0002a0 f1 5f 3d be 2d 2f 9f 3e 85 6f 2a 3e 21 03 cc bd
       -0.1849363 0.3109068 0.16644104 -0.09961534
0002b0 9c ea a6 be 6b f1 09 3f d2 56 bd 3d d4 40 55 3c
       -0.32600868 0.53884 0.09245075 0.0130159445
0002c0 fb f9 30 3e 3a e4 e0 bd 5c d1 89 bb 25 5a eb be
       0.1728286 -0.10981031 -0.004205866 -0.45967212
0002d0 f9 2f 94 3e 4f 82 27 bf 91 17 4b 3e 46 23 3b be
       0.2894285 -0.6543321 0.19833209 -0.18275174
0002e0 b7 c3 ab 3d e3 53 38 3e b7 9f 0b bd e5 2e 8f 3e
       0.08386939 0.1800075 -0.034087863 0.27965465
0002f0 1b 3c ea 3d f8 7b 51 3e 42 02 ff bd 3b 78 d6 3d
       0.114372455 0.20457447 -0.124516025 0.10472151
000300 7b e6 49 3c b8 d3 78 bd fd 1c 09 bf 0f b8 aa bd
       0.012323017 -0.060748786 -0.5355986 -0.08335888
000310 57 7a 16 bd 77 20 4d be 9e a9 a6 be f5 44 be be
       -0.036737766 -0.20031916 -0.32551283 -0.37161985
000320 ec 63 dc 3e 67 c8 b9 be a7 7f d4 be b0 08 d0 bc
       0.43044984 -0.36285707 -0.4150364 -0.025394768
000330 b1 1c 05 3c 52 fc 9b be 24 30 24 bf 96 a7 11 be
       0.008124516 -0.30465943 -0.64135957 -0.14224085
000340 ab 4d 66 3d 7c 8f d6 bb dc f1 9a 3e 2b 3a 26 be
       0.056226414 -0.0065478664 0.3026265 -0.16233127
000350 af 43 25 3e 99 dc 01 3f 59 e0 45 3e b9 65 9a 3b
       0.161391 0.5072723 0.19323863 0.0047118333
000360 b1 fb 4e 3d 7d 08 56 be 02 07 0b bd c4 84 9e 3e
       0.050533 -0.20901676 -0.03394223 0.30960667
000370 0c b4 58 3e 2e e7 c1 3d 7b 6c d5 be 0e 69 98 be
       0.21162432 0.09467922 -0.41684327 -0.2976765
000380 b4 08 03 bf 84 d1 dd 3e dc 2b b8 3c 3e dc 65 bd
       -0.51185155 0.4332391 0.022481851 -0.056118242
000390 e2 79 a5 be 75 e2 7e be f4 a3 28 3e 55 a0 33 3e
       -0.32319552 -0.24891074 0.16468793 0.1754163
0003a0 6b ed 30 3e 16 9c f7 3e 5b 7e d6 be 0f c5 1e 3e
       0.17278068 0.48361272 -0.41893277 0.1550486
0003b0 5a 2b ea bd b4 05 61 3e 76 11 b3 bc ae 0b 9d 3e
       -0.1143405 0.21974832 -0.021858912 0.30672973
0003c0 40 c5 79 bc ac 70 b6 bd 9c 60 da 3e 59 dd 2e 3d
       -0.015244782 -0.08908209 0.42651832 0.042691562
0003d0 5f c1 5d 3e 78 7a a6 3d fa 05 7f be 8f b2 3f 3e
       0.21655796 0.08128828 -0.24904624 0.18720458
0003e0 02 e6 6e bd fc 14 e0 3e bb 9b c8 3e 76 bf 36 3e
       -0.05832482 0.4376601 0.39181313 0.17846474
0003f0 6a 0b d8 3e 15 81 61 3e 6a 8c e5 be 0f ef b9 be
       0.42196208 0.22021897 -0.4483369 -0.363152

item_emb.weight f4 [1683, 64]
000000 94 3f 7b 2b 40 c1 ac b5 32 b1 87 ae a5 03 b5 37
       8.9261346e-13 -1.2871242e-06 -6.1705654e-11 2.1578579e-05
000010 22 7f 19 ab 22 83 16 2c d4 2d 8c 35 fa 82 e8 ad
       -5.453295e-13 2.1389075e-12 1.0444151e-06 -2.6433512e-11
000020 7e dd de 2d e8 23 31 38 3f 3f f4 b2 98 00 33 b3
       2.533684e-11 4.223353e-05 -2.84341e-08 -4.1677225e-08
000030 d1 8d ae 36 e8 3b 82 ae 9e 32 15 b1 40 7c ad af
       5.2021137e-06 -5.922357e-11 -2.1711126e-09 -3.1556802e-10
000040 14 31 89 af d4 22 e6 b2 4c 3a 54 37 23 f8 d1 2d
       -2.4955027e-10 -2.6791362e-08 1.2649758e-05 2.3870744e-11
000050 6c ac 86 b7 86 a8 2b b7 42 cb a2 b6 70 82 e2 34
       -1.6054335e-05 -1.0231632e-05 -4.8516386e-06 4.2190686e-07
000060 ad 5b 59 b2 9e ae 35 2e 2d 20 00 00 bf 13 00 80
       -1.2651907e-08 4.1309726e-11 1.1542e-41 -7.084e-42
000070 8b 95 00 b1 9a b0 3b 33 98 27 3c 32 cc 72 f7 b6
       -1.8711457e-09 4.369995e-08 1.0952043e-08 -7.3745377e-06
000080 71 0a ff 32 5c 87 6d 2d 66 d0 a0 af 8e 62 08 ab
       2.9690655e-08 1.3501946e-11 -2.9251906e-10 -4.845368e-13
000090 b7 65 f4 33 99 09 00 80 5f 57 a7 37 40 67 fa aa
       1.1380637e-07 -3.443e-42 1.9948637e-05 -4.4480565e-13
0000a0 20 8e c9 b5 82 73 fe 32 9e b9 88 b4 35 1a 88 2e
       -1.5017031e-06 2.9622019e-08 -2.5467028e-07 6.189219e-11
0000b0 93 e0 4e 2d 1e 09 00 00 88 77 9c 32 54 62 f5 af
       1.175961e-11 3.27e-42 1.8215147e-08 -4.4635107e-10
0000c0 ce c5 5b 31 7e fb 02 ad 2f ca 16 2b ac d1 02 34
       3.1981133e-09 -7.445487e-12 5.357129e-13 1.2183472e-07
0000d0 84 ec 0c 2c d2 75 a5 36 b8 df 27 31 f2 98 d3 ad
       2.002649e-12 4.9310993e-06 2.4428868e-09 -2.4055844e-11
0000e0 88 10 f7 36 f6 1c 86 ad b7 d1 a2 2b 78 18 f4 ac
       7.363098e-06 -1.5246897e-11 1.1569e-12 -6.9376137e-12
0000f0 14 19 00 00 d8 01 00 80 ac 96 1a ad 55 09 00 80
       8.996e-42 -6.61e-43 -8.787342e-12 -3.348e-42
000100 f1 e9 7b 3e 9d 67 87 3e 10 88 87 3e 9a 81 c2 3d
       0.2460096 0.26446238 0.26470995 0.09497376
000110 b1 14 8b 3c 94 00 98 3e 3f 65 bb be 76 ec 0c 3f
       0.01697764 0.2968794 -0.36600682 0.5504831
000120 b9 e4 12 be be 1d fe 3d 85 5a 06 bd 82 71 1c be
       -0.14345063 0.124080166 -0.03280117 -0.15277675
000130 d4 d8 fe 3e bb 46 35 3f fc 6f f3 bd 3e c3 71 bf
       0.49774802 0.7081105 -0.11886594 -0.9443854
000140 c3 ce 3c 3e 0b 62 12 3e f2 99 0b bf fd 5e b4 be
       0.18438248 0.14295213 -0.54531777 -0.3522872
000150 96 c8 44 3d 4f a1 a9 3d 53 f1 2a bf 9e c1 75 bc
       0.048042856 0.0828272 -0.6677448 -0.014999775
000160 6e 48 88 3e d6 ed f3 bd 5b f1 db bd 63 28 59 be
       0.2661776 -0.11910598 -0.10739394 -0.21206813
000170 00 6c fa be 0e 5b af 3d 62 d3 c8 3d 9e b3 e7 bd
       -0.48910522 0.08562289 0.09805943 -0.11313556
000180 b2 79 14 3f 39 a9 5e be 6e 1a 02 3d 76 45 14 3f
       0.5799819 -0.21744241 0.031763487 0.5791849
000190 a3 b5 12 3e 94 78 78 be 73 9b 10 3e 41 25 a3 be
       0.14327101 -0.24264747 0.14121799 -0.3186436
0001a0 33 b6 20 3e 9b 96 65 bd 09 28 21 be 80 c9 18 3e
       0.15694503 -0.05605183 -0.15737928 0.14920616
0001b0 e8 cd 41 3f c0 8d 0a 3f 27 2f 83 3e e4 84 92 3e
       0.75704813 0.54122543 0.25621912 0.28617013
0001c0 d3 57 8a 3d f9 c6 b4 be ac c0 d7 3e b1 18 91 3e
       0.067550324 -0.35308054 0.42139184 0.2833915
0001d0 7f 3b 11 3e 16 41 11 3f 4e dd 0b 3f 4d 77 78 bc
       0.14182852 0.5673994 0.5463456 -0.015165162
0001e0 e3 e4 18 3f c5 db 3a 3e 04 8c 0c 3e bb 02 59 3c
       0.59724253 0.18247898 0.13725287 0.01324528
0001f0 1a 8a 3a 3e d4 dc c0 be e1 c2 91 3e 4b d0 23 bd
       0.18216744 -0.37668478 0.28468993 -0.039993566
000200 b3 da 02 be 91 9f a1 bd de f4 1e be c7 4a 29 3c
       -0.1277874 -0.07891763 -0.15523097 0.01033277
000210 1b c0 a1 3e 0a 07 9c bd 84 1e 54 be 88 bf 9b bc
       0.31591877 -0.0761853 -0.20714766 -0.019012228
000220 cf 32 5a 3d 9a 37 29 be ed 44 08 3f 8d b6 03 be
       0.05327111 -0.16525117 0.5323017 -0.12862606
000230 3b ae 4e be a8 6c 19 be 3a 1c b2 3e 09 e9 43 3e
       -0.20183651 -0.14982855 0.3478716 0.19131865
000240 d8 b9 43 bc ad ef bd be 98 53 5d be 03 b3 a7 3e
       -0.011946164 -0.3709692 -0.2161392 0.32753763
000250 36 4c 01 3e 2d 79 13 be 3c 71 e6 be 34 29 9e 3e
       0.12626728 -0.14401694 -0.45008266 0.3089081
000260 41 97 45 3e 0a c4 ee be b6 dd 9b 3e 3d dd 91 bc
       0.1929598 -0.4663394 0.3044259 -0.01780569
000270 a7 03 1a 3d b8 11 3f be 85 b2 70 3d fd cf 5d be
       0.03760114 -0.18659103 0.058764 -0.21661372
000280 d0 23 9d bc ec 8a 21 3d d6 89 6f ba 59 19 46 be
       -0.019182116 0.039439127 -0.00091376656 -0.19345607
000290 1f bb ae 3e bd 94 c5 3e 57 53 39 3e 12 7c 21 bd
       0.34127137 0.3859004 0.18098198 -0.039424963
0002a0 09 05 35 3e 7f 01 44 3d 18 51 74 be 9e 19 08 3d
       0.17677702 0.04785299 -0.2385906 0.033227555
0002b0 9e be 58 3e 7d 34 56 be 3c d4 be bd 39 a4 dc bd
       0.21166465 -0.2091846 -0.09317824 -0.107735105
0002c0 39 ef 43 be 1b 4a d5 bd dd b5 a2 3e 64 0c f1 bd
       -0.19134225 -0.10414525 0.31779376 -0.117699414
0002d0 0e f0 08 3e 84 54 bc bd 43 b8 aa 3e 0a 49 b9 bd
       0.13372824 -0.091958076 0.33343706 -0.09047134
0002e0 bc c4 9a bd c2 a2 8b be ba e2 85 3d 23 e7 5d be
       -0.07557055 -0.27272612 0.06537385 -0.21670203
0002f0 76 9d a2 be 25 6d 7f 3e 1c 90 43 3c 33 c9 09 be
       -0.31760758 0.24943979 0.011936214 -0.13455658
000300 c2 5e 4c bd 84 b3 11 bd 5c c0 9d be 14 f3 52 be
       -0.049895056 -0.03557159 -0.3081082 -0.2060054
000310 7f fd 1a 3f 1a d6 96 3d c0 8c ec bd 3e 32 89 be
       0.60543054 0.073650554 -0.115502834 -0.26796144
000320 ec 7b cb 3d 71 d0 18 be 87 7f a6 3e 75 41 89 3e
       0.099357456 -0.14923264 0.3251917 0.26807752
000330 9c 3b d9 3d 80 08 19 be 4a ff 35 be dd df bc be
       0.10607073 -0.14944649 -0.17773166 -0.36889544
000340 1c e1 8f 3d 43 ab 27 3b 23 27 b0 3e b7 99 95 3d
       0.07025358 0.0025584258 0.3440486 0.073047094
000350 0f cc 8c bd 90 7f 0b be 29 4c a6 3e 00 c6 83 be
       -0.068748586 -0.1362288 0.3247998 -0.25737
000360 4d 71 aa bd f8 64 16 3e 30 c7 5f bd 4c 5d f1 be
       -0.08322392 0.14686954 -0.05463332 -0.47141492
000370 62 81 1e be 78 7b 84 bd c0 c4 86 be 7e 9d 0a 3d
       -0.15479043 -0.06468862 -0.26321983 0.033841603
000380 fa 9d 12 3d 98 bf 15 bd 2c 07 de 3e 6f 1c ed be
       0.03579519 -0.03655967 0.43364847 -0.46310756
000390 4c ec c0 3e e1 d6 df 3e 0c a6 20 3d 26 da b5 bb
       0.3768028 0.43718627 0.039220855 -0.005549687
0003a0 e8 65 ca 3e 4f ac e2 be 3f db ca 3c 1f 06 89 be
       0.39530873 -0.44272086 0.024762748 -0.26762483
0003b0 c7 ad 50 3d 63 42 03 3e 48 97 b3 3c 03 50 c4 bd
       0.050946977 0.12818293 0.021922722 -0.095855735
0003c0 51 84 d2 3d 3d 69 77 be 9d 60 7b be ad 7b 3b 3e
       0.102791436 -0.24161239 -0.24548574 0.18308897
0003d0 5d 6b a4 be 18 c6 c5 bc 38 08 78 3d 79 c0 99 3a
       -0.32113162 -0.02414231 0.060554713 0.0011730335
0003e0 a5 b2 b7 be b6 31 14 3e 69 d1 06 bf c6 64 1f be
       -0.35878482 0.14472088 -0.52663285 -0.15565786
0003f0 19 7f 93 be a3 be 8e be b9 82 39 3e bf 60 a1 be
       -0.28807905 -0.2787982 0.18116273 -0.31519124

item_bais.weight f4 [1683, 1]
000000 ab 64 a9 aa 41 06 b7 3e 03 3c 48 bd 6f 4e cd bd
       -3.0090283e-13 0.3574696 -0.048885357 -0.10024726
000010 c6 c2 93 bc df 05 84 3d c7 ef 3a bd 22 51 61 3e
       -0.018037211 0.06446432 -0.045638826 0.22003606
000020 db fb f9 3e 2e f8 92 3e 5f b1 e8 3e 2f 76 3f 3e
       0.48824963 0.2870497 0.45447823 0.18697427
000030 d0 26 4c 3f 29 45 50 bd 37 e0 b1 3e 28 5f 8d 3e
       0.79746723 -0.050847206 0.34741375 0.2761166
000040 2b 9d a8 3c f9 d7 d8 bd ca 2d 28 be 71 77 c4 3e
       0.020582756 -0.105880685 -0.16423717 0.38372377
000050 ba d6 05 be c9 a0 f8 be 6e 87 fe 3e 37 b0 9b 3e
       -0.13070193 -0.4856017 0.497127 0.3040788
000060 31 16 14 bd df 5c a6 3d d4 bd ea 3b a0 59 85 3d
       -0.036153976 0.081231825 0.0071637426 0.06511235
000070 03 21 f2 3e d4 c5 a1 be 00 53 aa 3e af d2 55 3e
       0.4729081 -0.31596243 0.3326645 0.2088115
000080 65 0d 53 3d df 4e 2a 3e 74 3a 59 be 13 5d 0c bf
       0.051526446 0.1663165 -0.21213704 -0.5482952
000090 1b 5d 18 bf 65 3b 35 be fe de f1 bd a0 6f 1e bd
       -0.5951707 -0.17698438 -0.118101105 -0.038680673
0000a0 9d 20 55 be 6e eb 3f be 20 7f dd 3d c3 1b 20 bd
       -0.20813222 -0.18742153 0.10815263 -0.039088976
0000b0 50 99 c2 bd 4b b1 02 3f e7 3c 80 3e 48 61 06 3d
       -0.09501898 0.5105178 0.25046465 0.03280762
0000c0 c1 c7 fa 3e 91 63 e5 bc ca 4a 4a 3f a2 0d a1 3d
       0.48980525 -0.028001579 0.7902037 0.078639284
0000d0 b1 81 3f 3e b0 04 9b be 41 22 f6 bd a4 37 01 3e
       0.18701817 -0.30277014 -0.12018252 0.12618881
0000e0 5b 22 f4 3e c5 22 e6 3e ad 29 5f 3e 3f c3 f2 3e
       0.4768246 0.44948402 0.21793242 0.47414586
0000f0 c3 bc 8e 3e 70 29 a4 3e 73 48 46 bd b2 63 16 be
       0.2787839 0.32062864 -0.048408937 -0.14686468
000100 8b 67 5c 3f bf 4b 1f 3e 87 18 91 3c ad 86 16 be
       0.86095494 0.15556239 0.01771189 -0.14699812
000110 0d 2a 02 bd f2 ff 9a 3e 80 25 5b 3e d9 12 a5 3e
       -0.031778384 0.30273396 0.21401024 0.32240942
000120 5d 25 18 be 82 cd 2d 3e 36 a6 c4 bd f2 3d d9 bc
       -0.14858003 0.16972926 -0.09602015 -0.026518796
000130 c4 63 85 3d ba 23 eb 3b e2 e1 16 bf 6a ee 10 3f
       0.065131694 0.00717589 -0.5893842 0.5661379
000140 92 de f7 be 35 91 0d bd 56 d4 a4 3e 34 cb da 3e
       -0.48411995 -0.03456231 0.3219325 0.42733157
000150 9d 41 6e be 01 0b 0f be 44 9d e1 3e 27 78 e9 3e
       -0.23267217 -0.13969041 0.44065297 0.4559948
000160 d8 ad 05 3c ad 54 03 3f d0 63 c2 be 2a 32 b0 3d
       0.008159123 0.5130108 -0.37966776 0.08603318
000170 a3 a6 fd 3b 11 c3 8b bd 8b b1 fa bd 40 5c 9c 3e
       0.007740812 -0.06824315 -0.12240895 0.3053913
000180 40 cc 0d 3f b7 bf 95 3e 33 b0 38 3f a7 4f 5c 3e
       0.55389786 0.2924783 0.7214386 0.2151476
000190 d1 c7 00 3f 80 a7 9a 3c 6c af 1e be 44 6d 1e bf
       0.50304896 0.018878698 -0.15496606 -0.61885476
0001a0 c7 57 dd be 89 6f 29 bf a6 33 83 be dd b7 97 3d
       -0.4323103 -0.66185814 -0.25625342 0.07408116
0001b0 cf 42 7a be 16 6d 55 bd cf e8 1d bf 73 4a ef 3d
       -0.24439548 -0.052105986 -0.6168336 0.11684122
0001c0 f1 b7 11 bf be f3 01 3f 6f 4d 3d 3f 85 8c 91 3d
       -0.569213 0.50762546 0.7394628 0.0710688
0001d0 97 dc b0 3e 78 c9 75 3e d4 6c 18 be 13 e5 b8 3e
       0.34543297 0.24002635 -0.14885265 0.3611227
0001e0 7d d7 45 bf 43 ea 5b 3d 48 87 6d bf 22 39 cf bd
       -0.77281934 0.053690206 -0.9278455 -0.10118319
0001f0 03 9b c0 3e 1e 7b d4 3d df 19 9c 3e 6b 47 13 3f
       0.37618265 0.10375045 0.30488488 0.5753085
000200 8c c5 d3 3d 25 e4 c3 3e 41 cc 14 bf 32 1c 89 3e
       0.103404135 0.38259998 -0.58124167 0.26779324
000210 5e ef 16 3f da 5e b5 3e ff ee 1a 3f 86 98 a2 3e
       0.58958995 0.35423928 0.6052093 0.3175699
000220 2a 07 18 3f 45 2f b2 3d fa da ec be e2 a6 b5 be
       0.5938593 0.08700422 -0.46260816 -0.35478884
000230 55 e2 00 be db 76 3e bb 6c a4 63 be ad 74 cd 3e
       -0.12586339 -0.0029062543 -0.2223069 0.4012808
000240 87 92 a2 3e 2c 04 09 bf 8b 6e 71 be a0 52 e7 3d
       0.31752416 -0.5352199 -0.23577325 0.11295056
000250 0f 60 dd bc f0 f0 06 bd 90 bd 6a 3e 1f 26 ff 3d
       -0.027023343 -0.03294462 0.22923875 0.12458443
000260 43 76 4c 3e ee 74 9b 3e 62 76 e5 3c 33 18 52 be
       0.19966988 0.30362648 0.02801055 -0.20517044
000270 5e a4 9a 3e 8f d2 1f 3e 73 ce 02 bf 46 d0 c4 3d
       0.30203527 0.15607665 -0.51096267 0.096100375
000280 a7 aa 13 3d 59 b3 ea 3d 45 cf 7a 3d fe 6e 00 3e
       0.03605142 0.11459989 0.061232824 0.1254234
000290 c6 62 f3 3d 08 2e 0c 3f 8d 3c 12 3f d0 66 ca bd
       0.11884074 0.5475774 0.57123643 -0.09882891
0002a0 6e 76 d4 3e 76 10 50 3f 54 2d e1 3e 79 78 03 3e
       0.41496605 0.8127512 0.43979895 0.12838925
0002b0 01 16 19 3f f4 f8 10 3f 3c c8 37 3f 42 be 3d 3e
       0.597992 0.5662987 0.7178991 0.18529609
0002c0 95 13 dc 3e 68 76 b7 3e 95 ff 34 3f 0e 4f 36 3e
       0.4298369 0.35832524 0.7070249 0.17803594
0002d0 60 be cf 3e 5e f5 e9 3e 12 a7 b1 3e db c9 e0 3e
       0.40574932 0.45695013 0.34697777 0.43904004
0002e0 82 3b e7 bd e5 9f f9 3e 21 53 c1 3e 9a 3a ef 3e
       -0.11290647 0.48754802 0.37758735 0.46724397
0002f0 18 d6 a0 3d b1 ab 11 3f cd a7 1a 3f 1c 2c 1d 3f
       0.07853335 0.56902605 0.60412294 0.6139543
000300 97 a0 6b 3e da cf e1 3e 21 7b 0a 3f af 60 c1 3e
       0.23010479 0.4410389 0.5409413 0.37769076
000310 f7 ee d7 3e 42 ad e5 3e 9d 53 09 3f 72 95 20 3f
       0.42174503 0.44858748 0.5364321 0.62728035
000320 de 25 af 3e 73 62 a2 3d 54 a2 97 3e ae f2 a8 3e
       0.34208578 0.07928934 0.29616034 0.3299765
000330 4c 3b ba 3e 9b d0 c5 3e c2 93 85 bd 1f 04 af 3e
       0.36373365 0.38635716 -0.06522323 0.34182832
000340 5c e5 da 3e eb bb 05 3e 13 25 03 3f 24 82 c2 3e
       0.42753112 0.13059966 0.51228446 0.37989914
000350 f1 bf cc bd a0 b9 d9 3e 0f f9 42 be a0 79 0b 3e
       -0.099975474 0.42524433 -0.19040321 0.13620615
000360 4a b9 e0 3e 5c 99 ab bd 85 1e f5 3d 6c a9 c7 bd
       0.43891364 -0.0837886 0.11968712 -0.097491115
000370 e8 8c 98 bd bb 31 15 3e 56 6e 5b 3e 32 d1 0f 3f
       -0.07448751 0.14569752 0.21428809 0.5617858
000380 ca 69 83 3e a9 b0 75 be fa e9 26 3c cb 4d 0e be
       0.25666648 -0.23993172 0.01018762 -0.13896863
000390 83 8f 55 3e 98 a6 78 be 37 7c f9 3c d8 d7 cb be
       0.20855527 -0.242823 0.030454738 -0.39813113
0003a0 80 41 ec bd a2 a9 b3 bd a0 91 5f 3e bc 2d d2 be
       -0.11535931 -0.08772589 0.21832895 -0.41050518
0003b0 75 46 37 3e 2d 17 6f 3e 35 7a 81 3e 31 35 88 3d
       0.17897971 0.23348685 0.2528855 0.066507705
0003c0 e3 41 00 bf b2 14 36 3e 38 f7 0e 3f 71 64 35 bf
       -0.50100535 0.17781332 0.55845976 -0.70856386
0003d0 61 b1 ef 3c 22 15 d5 bd 80 8b 94 3e ad 79 b7 be
       0.029259386 -0.104044214 0.2901268 -0.3583502
0003e0 5e e7 98 3e b4 05 a7 bd c2 d0 d0 3d 0e 78 15 3f
       0.2986402 -0.08155385 0.101960674 0.58386314
0003f0 df e0 84 be 62 cf 4a 3e 1e 75 31 bf fa a2 dc bd
       -0.25952813 0.19805673 -0.6931933 -0.10773273
